…
      )
    )
    (last_encoder_conv): Conv3d(96, 96, kernel_size=(1, 1, 1), stride=(1, 1, 1))
  )
  (mlp_encoder): ConvMLP(
    (layers): ModuleList(
      (0): Conv3d(96, 48, kernel_size=(1, 1, 1), stride=(1, 1, 1))
      (1): Conv3d(48, 24, kernel_size=(1, 1, 1), stride=(1, 1, 1))
      (2): Conv3d(24, 12, kernel_size=(1, 1, 1), stride=(1, 1, 1))
    )
    (relu): ReLU()
  )
)
----------------------------------------------------------------
        Layer (type)               Output Shape         Param #
================================================================
            Conv3d-1       [-1, 32, 32, 32, 32]           4,032
          Identity-2       [-1, 32, 32, 32, 32]               0
               ELU-3       [-1, 32, 32, 32, 32]               0
            Conv3d-4       [-1, 64, 16, 16, 16]         256,064
          Identity-5       [-1, 64, 16, 16, 16]               0
               ELU-6       [-1, 64, 16, 16, 16]               0
            Conv3d-7          [-1, 96, 8, 8, 8]         165,984
          Identity-8          [-1, 96, 8, 8, 8]               0
               ELU-9          [-1, 96, 8, 8, 8]               0
           Conv3d-10          [-1, 96, 8, 8, 8]           9,312
        EncoderND-11          [-1, 96, 1, 1, 1]               0
           Conv3d-12          [-1, 48, 1, 1, 1]           4,656
             ReLU-13          [-1, 48, 1, 1, 1]               0
           Conv3d-14          [-1, 24, 1, 1, 1]           1,176
             ReLU-15          [-1, 24, 1, 1, 1]               0
           Conv3d-16          [-1, 12, 1, 1, 1]             300
          ConvMLP-17          [-1, 12, 1, 1, 1]               0
================================================================
Total params: 441,524
Trainable params: 441,524
Non-trainable params: 0
----------------------------------------------------------------
Input size (MB): 1.00
Forward/backward pass size (MB): 31.50
Params size (MB): 1.68
Estimated Total Size (MB): 34.19
----------------------------------------------------------------
######init simple_dataset with amount =1, len of datset is 4#####
…
